assets/MLModel.tflite (tflite, 20060 bytes, 5 tensors)

sequential/dense_1/BiasAdd/ReadVariableOp f4 [64]
000000 00 00 00 00 41 83 84 3c 6e 43 84 3c 9d 03 6a bc
       0.0 0.016175868 0.016145434 -0.014283088
000010 32 b2 8d bc f3 96 a0 bc fa 8c 28 bc 06 ce 77 bc
       -0.017296884 -0.019603228 -0.010287518 -0.015124803
000020 99 76 80 3c e1 90 84 3c a4 8d bc bc c3 db 23 bc
       0.015681552 0.016182365 -0.023016758 -0.010001126
000030 25 22 3a bc ca a3 14 3a c2 60 61 3c ed fc 1b 3c
       -0.01136068 0.00056701584 0.013755979 0.009520751
000040 dc 20 84 bc fe 6e b0 3c 60 51 99 3c e4 dd 83 3c
       -0.01612895 0.0215373 0.01871556 0.016097017
000050 5f b7 84 3c db 0a bb bc 67 03 cf bb e7 ae 88 bc
       0.01620072 -0.022832325 -0.0063175443 -0.016684962
000060 20 a6 e7 3c 00 00 00 00 15 97 a1 bc 94 43 0b 3d
       0.028277457 0.0 -0.019725362 0.033999994
000070 62 bc 84 bc f8 5c 10 3d a8 35 fc bb c4 1e 85 3c
       -0.01620311 0.035244912 -0.007696826 0.016250022
000080 00 00 00 00 a1 c9 a9 bc 0b 29 86 3c 2a f0 97 bc
       0.0 -0.020726027 0.016376993 -0.018547136
000090 69 44 21 bc 5a e1 8b 3c 9b 1b ba bc 0b 44 fd 3c
       -0.00984297 0.01707523 -0.022718241 0.030916234
0000a0 00 00 00 00 4d 64 87 3c f1 73 0a bc fd 7e 84 3c
       0.0 0.01652732 -0.008450494 0.016173834
0000b0 38 37 8c 3c 8a e8 8e bc 00 00 00 00 52 6d 7d 3c
       0.017116174 -0.017444868 0.0 0.0154679585
0000c0 0b af 3b bb 1d 53 99 bc 1b aa 3e bb e6 3d 53 bb
       -0.002863827 -0.01871639 -0.002909309 -0.003223294
0000d0 45 f1 34 3c ee ee 9a bc b0 95 92 3c 00 00 00 00
       0.011043851 -0.018912759 0.017893642 0.0
0000e0 2f f6 83 3c a1 7f 75 3c 00 00 00 00 5c a7 8b 3c
       0.0161086 0.014984042 0.0 0.017047577
0000f0 d4 2a 3a bc 59 6d 18 3b 91 64 ac bc 90 3e 86 3c
       -0.01136275 0.0023258536 -0.021044048 0.016387254

sequential/dense/BiasAdd/ReadVariableOp f4 [64]
000000 ca b7 91 bc ef a5 06 3d 26 eb ba bc 54 28 6e ba
       -0.017787833 0.03287309 -0.022817206 -0.0009084989
000010 77 a1 75 3c 0b 41 61 bc 66 c5 3f bc 00 00 00 00
       0.0149921095 -0.013748418 -0.011704778 0.0
000020 c8 6d 1e bc 22 a2 26 3d b3 81 32 3d eb dc 0c 3d
       -0.009669729 0.040681966 0.043580722 0.03439037
000030 21 5d e6 bc a1 29 a4 bc da 32 be 3c d1 0e c9 bc
       -0.02812058 -0.020039381 0.023217607 -0.024543198
000040 70 ad 79 3a fd 76 2c 3b f1 2a 4e bc 01 aa 95 3c
       0.00095244404 0.002631604 -0.01258348 0.01826954
000050 4f 66 ec bb 30 3a b7 bc 00 00 00 00 35 3d 60 3c
       -0.0072143446 -0.022366613 0.0 0.013686468
000060 00 00 00 00 1d 81 0e 3d e3 bb 8e 3b 24 20 65 bc
       0.0 0.0347911 0.004355894 -0.013984714
000070 44 61 1c 3d 4f 24 24 3d c0 f0 85 3c 00 00 00 00
       0.038178697 0.04007369 0.01635015 0.0
000080 7f ca d0 bc 7c 62 60 3b c9 49 b2 3c ed ad 3f 3b
       -0.025487183 0.0034238389 0.0217637 0.0029247955
000090 34 d4 9c 3c 19 d7 65 3c a6 93 e1 3c f8 35 9b 3c
       0.019144155 0.014028334 0.027536225 0.018946633
0000a0 c7 48 7f 3c 08 38 89 39 da b0 ff 39 00 00 00 00
       0.015581316 0.00026172423 0.00048769155 0.0
0000b0 84 73 d4 bb 78 98 c0 3c f6 3c 41 bc 8c 7e 41 3c
       -0.006483497 0.023510203 -0.011794319 0.011809956
0000c0 c3 12 19 3c 6e 43 82 bc 00 00 00 00 f9 99 56 bc
       0.009342852 -0.015901294 0.0 -0.013098233
0000d0 6e c4 dd 3c aa bc 66 3c 5e 61 d5 bc 7a 7a 4a bc
       0.027071204 0.014083067 -0.026047405 -0.012358302
0000e0 21 c2 1b 3c 22 7b 91 bc f5 fa 19 3b 23 9d 1b 3d
       0.009506733 -0.01775891 0.002349553 0.037991654
0000f0 2d b5 a5 3b 4e 97 85 bb dd 3f 08 3d 93 05 b6 3c
       0.005056998 -0.004076875 0.03326403 0.022219455

sequential/dense/MatMul f4 [64, 4]
000000 ab 9c 61 3e 85 7a 1c bd c7 c8 75 be 55 41 30 bd
       0.2203242 -0.03820278 -0.24002372 -0.043031055
000010 f7 d1 58 3e af 17 f9 3d 3e c9 56 be 17 72 78 be
       0.21173845 0.121627204 -0.20975205 -0.24262272
000020 80 cd 37 3e d2 06 a5 3d 63 f3 97 bd 2b 11 fd bd
       0.17949486 0.080579415 -0.07419469 -0.1235679
000030 b8 94 9c bd 9e c9 8c be 68 19 ac 3d 78 a8 86 3e
       -0.07645553 -0.27497572 0.08403283 0.26300406
000040 b5 34 67 3e 6c d3 05 be a3 a7 32 3e 6e af 64 3d
       0.225787 -0.13068932 0.17446761 0.055831365
000050 06 1d 7f 3e 03 29 c6 3c 6d 6f 40 3e d8 21 72 be
       0.24913415 0.024189478 0.18792506 -0.23645723
000060 1f 66 1e be 95 28 9c 3d 38 34 b1 bb 04 1c 90 3d
       -0.15468644 0.07624928 -0.0054078363 0.070365936
000070 3e 3e b0 bd 97 67 85 be ba 34 71 be d0 4c 56 3d
       -0.08605622 -0.26055595 -0.2355527 0.052319348
000080 ee a3 04 bc 55 09 96 3d 47 b4 54 be 88 b1 01 be
       -0.0080957245 0.07325999 -0.20771895 -0.12665379
000090 1a 44 52 be e8 04 05 bd ea 51 f7 bc 60 ef 8e 3e
       -0.20533791 -0.032475382 -0.030190427 0.27917004
0000a0 4b ad 78 be 2e f2 3c be 0b a3 25 3e 4c f0 a5 3c
       -0.24284856 -0.18451759 0.16175477 0.020256184
0000b0 33 59 a0 3e ad ff 1a be 7c bb 82 3e b7 ea 4e be
       0.31318054 -0.15136595 0.25533664 -0.20206724
0000c0 11 70 e0 3d 19 98 84 be 2c cf 7a be 47 7f 86 be
       0.10958875 -0.2589729 -0.24493092 -0.2626898
0000d0 bc c7 fb bd 8a fd 3d 3e fd 2b 31 3d 4a 74 36 be
       -0.12293956 0.18553749 0.04325484 -0.17817798
0000e0 84 5c 53 be ab 4f 49 bc b8 32 fd 3d 7f 9b 9f 3d
       -0.2064076 -0.012287061 0.123631895 0.077933304
0000f0 21 b9 77 3e 51 db c2 3c c1 19 09 be 54 0e 73 3d
       0.24191715 0.023786219 -0.1338873 0.059339836
000100 f7 be 99 3e 1d 1c 57 3e 55 7c 76 be 09 85 b6 3c
       0.30028507 0.21006818 -0.24070866 0.022280233
000110 81 da 4e 3e 65 db 56 be 04 06 a6 3c 5e e6 2b 3e
       0.2020054 -0.2098213 0.02026654 0.16787097
000120 90 66 7e 3e b8 de 89 be cb 96 14 be 9f e6 d4 3d
       0.24843812 -0.26927733 -0.14510648 0.1039555
000130 8e 5b 38 3d 9f 51 f6 bd 47 92 9d 3e 90 cf da 3d
       0.04500919 -0.12027287 0.30775663 0.10684121
000140 26 48 7a be 50 8a 65 3c d6 64 e1 3c b1 0b 19 3d
       -0.24441585 0.014010027 0.027513903 0.037364665
000150 09 5a f7 3d d1 21 82 be 8f 5b 77 3d 1e ee 9d be
       0.1207772 -0.25416425 0.06039005 -0.30845731
000160 5c 59 56 bd ea 14 e9 bd a0 7a 2b bd dc 7d 6b be
       -0.052331313 -0.11380942 -0.04186499 -0.2299723
000170 8e 15 99 be 64 7b 3f 3e 29 d6 b6 3c a8 0c d6 ba
       -0.29899257 0.18699414 0.022318916 -0.0016330676
000180 38 33 7e be 8b 6d 5b be 58 11 29 bd c3 fb 96 be
       -0.24824226 -0.21428506 -0.041276306 -0.29488954
000190 aa 6e 09 3e d2 80 ea bd 71 6b 0a be b5 61 8f 3e
       0.13421121 -0.11450352 -0.13517548 0.28004232
0001a0 42 db 98 3e d5 c6 8a 3d fb 41 82 be c1 6a 16 3e
       0.2985478 0.067762055 -0.25440964 0.14689161
0001b0 82 b0 5a 3e 58 18 89 be fb 01 9f be ab e9 65 3e
       0.21356395 -0.26776385 -0.31056198 0.22452419
0001c0 42 75 5b be 68 9b 68 3e 36 dc 88 bd 97 d2 60 3d
       -0.21431449 0.22715533 -0.06682627 0.054888334
0001d0 1a 45 99 3d f6 35 5d be 61 19 aa 3d 7c 5c 52 3c
       0.07483883 -0.21602616 0.08305622 0.012839433
0001e0 cd 7f 55 3e be ff 98 3e 28 86 03 be f1 e9 78 3e
       0.20849533 0.29882616 -0.12844145 0.24307992
0001f0 f0 95 39 bd 70 2f d1 bc 70 fb fb bd 5e 1d 97 be
       -0.045309007 -0.025535315 -0.12303817 -0.29514593
000200 6a a9 83 3e f9 1c 7b bd df 59 3f bd 86 13 8c be
       0.2571519 -0.061306927 -0.046716567 -0.27358645
000210 54 c7 79 be 88 7f a7 bc 56 dc 43 3e da 59 96 3e
       -0.24392444 -0.020446554 0.1912702 0.29365426
000220 4b 9b 2b 3e f2 de 77 be 4f cc 68 bd bb 3f 6c 3e
       0.16758458 -0.2420614 -0.05683547 0.23071186
000230 12 e5 dc 3d 88 7b 07 be aa 84 61 be 16 20 8d 3e
       0.10785879 -0.13230717 -0.22023264 0.27563542
000240 73 41 10 3c 56 4f 18 be 95 77 4e 3e e4 cd eb 3d
       0.008804667 -0.14874014 0.20162804 0.1151388
000250 41 1d 81 be 4a a9 80 3e 56 de 64 be 80 8a c4 3d
       -0.2521763 0.25129157 -0.2235044 0.09596729
000260 c4 95 be bd 08 f1 07 be 33 30 9d 3e a6 bf 18 be
       -0.09305909 -0.1327554 0.30700836 -0.14916858
000270 d0 26 9b 3e 86 c0 8c bb b0 76 05 bd 93 dd 71 3e
       0.3030305 -0.0042954115 -0.032583892 0.2361968
000280 8f ab 14 be 52 9c 55 be a1 e8 88 3e f9 57 2e be
       -0.1451857 -0.20860413 0.26739982 -0.17025746
000290 60 1e 51 be 6f 82 62 be 89 b2 1a 3e 4b 27 73 3e
       -0.20421743 -0.22120069 0.15107168 0.23745458
0002a0 d7 95 81 3e 17 03 3b be 37 f6 74 be 5c a0 6c 3d
       0.2530963 -0.18262897 -0.23922049 0.057770118
0002b0 b7 46 81 be 30 42 93 bd 60 7d 41 3c 39 fc 10 be
       -0.25249264 -0.07190359 0.011809677 -0.14158715
0002c0 58 6d 9d bd e8 96 8d be 0c ce d4 bc 9e 0b 37 3e
       -0.07686871 -0.27654195 -0.025977157 0.17875525
0002d0 f5 fd e2 3d ef 90 d0 ba ae ef 23 3e 53 56 03 3c
       0.11083595 -0.0015912334 0.160094 0.008016187
0002e0 9f cb 6a 3e 2a 7d 7e be 12 4d 43 3e a3 28 6e 3d
       0.22929238 -0.24852434 0.19072369 0.058144223
0002f0 25 88 8c bd 05 8e 62 3d 3b ce 97 be d3 49 45 3e
       -0.06861905 0.05531122 -0.2964953 0.19266443
000300 a1 b0 6f 3e e1 00 0f be 99 73 06 bd 7a c9 78 3e
       0.23407222 -0.13965179 -0.032825086 0.24295607
000310 74 f9 01 3e 01 e2 c4 bc e2 1f 54 be 69 35 8a 3e
       0.12692815 -0.024033548 -0.20715287 0.26993874
000320 9b e7 17 be 00 ea 13 3c e4 cb a1 bd 15 f4 97 be
       -0.14834444 0.009027958 -0.07900217 -0.29678407
000330 3a a4 d0 3d 29 f6 6c 3e 4e d5 86 3e aa 7f b3 3c
       0.10187574 0.23140778 0.26334614 0.02191146
000340 b2 6d 4e 3e 70 2d 41 3e 58 b2 85 be 60 83 9b 3e
       0.20159033 0.1886499 -0.26112628 0.3037367
000350 df 85 0d 3d 1d b1 8d 3d d8 81 b6 bd 7f 87 fe 3d
       0.034551498 0.06918547 -0.089114845 0.124281876
000360 48 1f 58 be d4 82 5e 3e 97 be 54 be d5 a3 0b bd
       -0.21105683 0.21729594 -0.2077583 -0.03409179
000370 4a 49 8f 3d c8 8d 00 be 8c 40 da bb 3b fa d3 3c
       0.06996401 -0.12554085 -0.0066605266 0.025876155
000380 cc a9 bd bd e1 e1 8b 3e 71 c5 ab bc fb cf 8e be
       -0.09260902 0.2732077 -0.02096817 -0.27893052
000390 14 02 25 3d eb e9 63 3e 53 91 4d 3e 4d 8f f7 3d
       0.040285185 0.22257201 0.20074968 0.12087879
0003a0 66 f1 b9 bc f9 8f 2a 3e 8b 3c 7c bd 15 b3 b4 bd
       -0.022698116 0.16656484 -0.061581176 -0.0882322
0003b0 f7 e4 ab 3d 1f a0 38 be 09 8e af 3c da 33 68 bd
       0.08393281 -0.18029831 0.021430032 -0.056690075
0003c0 0e 06 58 bd 72 26 15 3d 52 7f ef 3d 54 c7 2d 3e
       -0.05274015 0.036413617 0.11694206 0.16970569
0003d0 95 de 8b be e2 c1 03 3d 5c 11 70 3e b2 7b 67 3d
       -0.27318254 0.032167323 0.23444122 0.05651445
0003e0 46 b3 38 3e 45 31 74 be 63 89 6f 3e 6f 92 8b be
       0.18037137 -0.2384692 0.23392253 -0.27260157
0003f0 a0 a8 d0 3d 60 eb fc 3d d0 07 27 be ac a9 4c be
       0.10188413 0.12349582 -0.16311574 -0.199866

sequential/dense_1/MatMul f4 [64, 64]
000000 e9 a3 19 be 5e 7a 84 3d 68 82 99 bc ef b6 c5 bd
       -0.15003933 0.06468652 -0.01873894 -0.096540324
000010 f1 03 43 be f4 8c e3 bd 81 8e 07 be 9a e4 fb 3d
       -0.19044472 -0.11110869 -0.13237955 0.12299462
000020 00 fb 12 bb ea ea ac bd 68 a1 96 bd 93 fd 21 3e
       -0.002242744 -0.08443244 -0.073550045 0.15819387
000030 12 ed 2f be 58 9a 85 bd a1 83 00 3e f0 fd 2f bd
       -0.17180279 -0.06523579 0.12550212 -0.042966783
000040 b2 07 ae 3d 8e 01 19 be 5e 86 25 be 02 1a 04 be
       0.084975615 -0.14942 -0.16164538 -0.12900546
000050 6e 8c 2d be 2f d0 01 3e 18 3f 51 be 6c 09 6f 3d
       -0.16948101 0.12677072 -0.20434225 0.058358595
000060 80 2d 46 be dd f7 4b 3e 18 ff 9d bd 9c 33 20 bd
       -0.19353294 0.19918771 -0.07714671 -0.03911172
000070 44 ed 05 be 04 de 5b bd 98 44 31 bd 24 59 18 3d
       -0.13078791 -0.053678527 -0.043278307 0.037194386
000080 66 f2 cb bd 0d 2d 43 3e 04 a8 19 bd c0 25 32 3c
       -0.09958343 0.19060154 -0.037513748 0.010873258
000090 d4 c9 4d be 73 4b 34 3e 16 41 59 be a6 3f ae 3d
       -0.20096523 0.17606907 -0.21216235 0.08508234
0000a0 ef 4e 1f 3e 1e a7 02 be b8 43 88 bc 21 b7 15 3e
       0.15557455 -0.12759063 -0.016633853 0.1462064
0000b0 a0 b8 94 bb 7c 5d 27 3d 40 9d 09 be 91 12 3b 3e
       -0.0045386106 0.040860638 -0.13438892 0.18268801
0000c0 f8 2e bd bc e8 5f 2a be b3 0c 0a 3e 09 88 52 be
       -0.023093686 -0.16638148 0.13481407 -0.20559706
0000d0 90 83 fd bd 0e 74 fd bd 9e a4 ab 3d ec 10 53 be
       -0.12378609 -0.12375651 0.083810076 -0.20611924
0000e0 ad 58 5a be bb e3 2c be b5 96 f2 bd ce 7c e8 3d
       -0.2132289 -0.16883747 -0.11845151 0.113519296
0000f0 e9 46 ea bd 11 f6 2f be ca ff 8a 3d 40 a4 d2 bc
       -0.11439306 -0.1718371 0.06787069 -0.025713086
000100 41 3a b6 3d 3f ba 92 bd 4f 0b 53 3e e5 f4 3d 3e
       0.0889783 -0.0716443 0.20609783 0.18550451
000110 a1 1e 5d bd 4e 75 b6 bd d8 53 51 be c0 12 95 bb
       -0.053984288 -0.08909093 -0.2044214 -0.0045493543
000120 1d c7 15 be 74 5a 73 be 0c de 9b bd 36 99 6b 3e
       -0.14626737 -0.23764974 -0.076107115 0.23007664
000130 f4 2d 1d 3d 4d fa e4 bd 3a d8 1e be b9 57 96 3d
       0.038373902 -0.111805536 -0.15512171 0.073409505
000140 2b ba d2 bd 11 89 1c 3e ba f2 08 3d 55 df 60 3d
       -0.10289415 0.15286662 0.033434607 0.054900486
000150 28 da 97 bd f5 6c d3 bd 66 46 fd 3d be 19 e4 3d
       -0.07414657 -0.10323516 0.12366943 0.111377224
000160 e0 98 68 bc be a2 42 be ea 80 3e 3e 61 c7 29 bd
       -0.0141966045 -0.19007394 0.18603864 -0.04144991
000170 b5 1b 34 be c3 e7 40 bc 6e 80 10 be ad d0 34 3e
       -0.17588694 -0.011774006 -0.14111492 0.17657728
000180 23 bb b9 bd 34 c6 2c bd ce 72 04 3e 38 83 b5 bd
       -0.090688966 -0.04218121 0.1293442 -0.088629186
000190 3e db 24 3e f2 9c 16 3e 23 1a 0e 3e ed 95 ea bd
       0.1609926 0.14708307 0.13877158 -0.11454377
0001a0 60 88 c1 bd 4e b8 8b 3c 15 45 90 3d 26 b3 cc 3d
       -0.094498396 0.017055657 0.07044426 0.09995107
0001b0 94 c1 04 be fd 52 2c be 13 4d 4d 3e d3 07 37 3e
       -0.12964469 -0.16828533 0.20048933 0.17874078
0001c0 8b 3c 6a 3e 65 92 27 3e 04 7e fd bd 44 78 28 3e
       0.22874658 0.16364439 -0.12377551 0.16452128
0001d0 76 93 6e 3e b2 2e 2e 3e f6 0c 3b be f7 04 ca 39
       0.2329844 0.1701 -0.18266663 0.00038532141
0001e0 52 c1 99 3d f1 ad 38 3e 60 59 04 bc 49 78 82 3c
       0.07507576 0.18035103 -0.008077949 0.015926497
0001f0 32 c2 d4 bd 8f dc e4 3d 7c c0 69 3e d0 bd e8 bd
       -0.10388602 0.11174881 0.22827333 -0.11364329
000200 6f a0 d6 bd 2f 49 04 3e 76 be 38 bd c6 60 ee bd
       -0.10479819 0.12918542 -0.045103513 -0.11639552
000210 ba d7 2f 3e 29 9d 0c be bd 21 da 3d e9 3e 1b 3e
       0.17172137 -0.13731827 0.10650966 0.15160717
000220 ad 50 9c 3b da f1 32 be ee ed a0 3b d1 2d 2e 3e
       0.0047703595 -0.17475072 0.004911176 0.17009665
000230 18 2a 24 be f9 b2 50 be a5 c5 d0 3d 7e 46 4a 3d
       -0.16031682 -0.20380773 0.10193948 0.049383633
000240 f0 b7 73 3e b2 44 f1 3c 55 01 9b bd 5c c6 24 3d
       0.23800635 0.029451702 -0.075686134 0.040228233
000250 b8 99 8e 3c 69 71 91 3d b4 49 4c be 22 fb d1 bd
       0.017407283 0.071017094 -0.1994999 -0.10252978
000260 3d 02 0d 3e f2 bb 07 bd d7 57 65 3e 5c be 60 3e
       0.13770385 -0.033138223 0.2239679 0.21947616
000270 43 68 ab 3c 33 f3 62 3e 67 6b a5 3d a0 20 f5 bb
       0.02092374 0.22163086 0.08077126 -0.007480696
000280 cf 80 04 3e d1 79 67 be 5f 76 34 be 2d 53 1c 3e
       0.12939762 -0.22605063 -0.1762328 0.15266104
000290 2c 1a 08 3e c7 11 ec 3d b2 e4 0e bc 86 9e 36 bd
       0.13291234 0.11526828 -0.008721517 -0.044584773
0002a0 6a ac bc bc af 8a af 3d 15 b0 5b bd c5 01 5b 3e
       -0.023031432 0.08571374 -0.05363472 0.21387394
0002b0 79 87 2c 3e ac 9a 4d 3e 6c 2f 17 3e cd dd 74 be
       0.16848554 0.20078534 0.14764184 -0.23912735
0002c0 0b 9c 30 3e 31 c4 34 3d b0 d5 6d bc a4 7a 00 bd
       0.17247026 0.044132415 -0.014516279 -0.03136696
0002d0 89 ee 14 bd d4 42 2d 3e 50 cd c2 bd b3 08 01 be
       -0.036360297 0.16920024 -0.095118165 -0.12600975
0002e0 a4 92 cd bd 97 9d cc bb 0f cc 8d 3d e9 b9 9d 3d
       -0.10037735 -0.006244372 0.06923687 0.07701475
0002f0 11 3e 38 be 3d 93 03 3e 36 63 5f 3e 93 0b 18 3e
       -0.17992426 0.12849136 0.2181519 0.14848165
000300 a1 68 c4 bc 49 d7 7d 3d 5a 91 12 3e 68 bc 3f 3e
       -0.023975672 0.06197289 0.1431326 0.18724215
000310 b7 18 00 3e 9f 23 87 bb d2 ca 87 bd 25 02 22 be
       0.12509428 -0.0041241194 -0.06630482 -0.1582113
000320 b3 19 0b be 1d 69 a7 3d 0c 06 c3 3d 8f 11 59 be
       -0.13584022 0.08174346 0.09522638 -0.21198104
000330 7a 41 3f 3e 90 ce 1a be cf 25 4b 3e d2 6e e2 bd
       0.18677321 -0.1511786 0.19838642 -0.110562935
000340 9b 51 30 3e 4e c9 38 3e 7f e8 5e be 28 ba 42 3e
       0.1721863 0.18045542 -0.21768378 0.19016325
000350 bc f3 46 3e db 1e 2f 3e de be ce 3d a4 a2 46 3e
       0.19428915 0.17101614 0.10094999 0.1939798
000360 00 9e 43 be f9 b1 30 be 68 99 e2 3d b4 c1 46 3d
       -0.19103241 -0.17255391 0.11064416 0.048524573
000370 17 23 b6 3c cc 25 4b 3c fa b0 0c bc f4 8a 84 bd
       0.022233529 0.012399148 -0.008587116 -0.06471816
000380 57 d6 40 be 86 6e 6d bd 81 25 09 bd 5c 01 fb bc
       -0.18831764 -0.05796673 -0.033483032 -0.030640297
000390 94 06 4e 3e ab 83 81 3d 13 2c 15 be f0 24 14 3d
       0.20119697 0.06323942 -0.14567594 0.03616804
0003a0 f9 86 4c 3e c4 d2 77 3e f4 6e e2 3c 4e 2b 8f bd
       0.19973363 0.24201494 0.027640797 -0.069906816
0003b0 99 75 13 be 36 a7 c2 3c 6c 67 2d 3e a4 8b 31 3e
       -0.14400329 0.023761373 0.16933984 0.17338425
0003c0 18 9f 25 be d6 d1 38 3e a7 f0 44 3e c6 0a 19 be
       -0.1617397 0.18048796 0.19232427 -0.14945516
0003d0 2b 21 54 3d 06 1e 30 be b6 8f 91 3d b9 a1 8a 3d
       0.051789444 -0.17198953 0.07107489 0.067691274
0003e0 a4 73 d4 3d fe f7 00 be 11 80 93 3d 7b a3 d2 bd
       0.10373619 -0.12594602 0.07202161 -0.10285088
0003f0 82 24 3f be 03 88 c6 3d 4e 38 a6 39 ce b3 1a 3e
       -0.1866627 0.09693911 0.00031703938 0.15107653

sequential/dense_2/MatMul f4 [1, 64]
000000 7c ea 6f bd 0e e5 44 3e 64 48 0c 3e b0 f5 f8 bd
       -0.05857323 0.19228002 0.1369949 -0.12156236
000010 7d dc 45 be 02 57 1a be 19 1c 0b 3e 62 6d 80 bd
       -0.19322391 -0.15072253 0.13584937 -0.06270863
000020 9d 85 82 3c cd 03 9c 3e 3e d4 03 3e 84 8d 20 be
       0.015932852 0.3047165 0.12873933 -0.15678984
000030 c9 2c 56 be cd 68 8d be 3b 54 01 3e 77 be 31 3d
       -0.20915522 -0.2761902 0.12629788 0.043394532
000040 26 7f 1b be 84 0e 8e bd 04 51 a1 3e c4 72 95 3d
       -0.15185222 -0.069363624 0.31507123 0.072972804
000050 fd ac d7 3d 91 7b 2f bd a3 4d 2b 3e 6e 2f d6 bd
       0.10531042 -0.04284245 0.16728835 -0.10458265
000060 36 dd 99 be ea a2 48 3e d1 c3 86 be 52 16 59 be
       -0.30051583 0.19593397 -0.2632127 -0.21199921
000070 08 da 5b be 4c cc 8c 3e 56 83 20 3d ac 53 f1 3d
       -0.21469891 0.27499616 0.03918775 0.11783537
000080 da fc d9 bd 4d 47 c2 bc 43 0c 25 3e 74 04 fb bd
       -0.10643931 -0.02371564 0.16117959 -0.12256709
000090 fe 2a 8c bc 44 3e 87 3e 67 e6 3c be b0 f2 18 be
       -0.017110344 0.26414692 -0.18447267 -0.14936328
0000a0 78 83 2d 3e 26 26 75 3e 9d f1 80 bd d3 98 4d 3e
       0.16944683 0.23940334 -0.06296084 0.20077829
0000b0 6d 9b 54 3e a8 a1 dc bd 80 55 55 3d 12 77 33 3e
       0.20762415 -0.10773021 0.052083492 0.1752589
0000c0 58 d8 21 be 29 e5 48 be cd 31 9c be 08 59 d7 bd
       -0.15805185 -0.19618668 -0.30506745 -0.10515028
0000d0 bd d8 7f be c9 19 d6 3d e7 e3 c1 3d 7c c9 e9 3d
       -0.24985023 0.10454137 0.09467297 0.11415383
0000e0 1d 7b 9c 3d 36 ad 7d 3e ec 1d 6d 3e 1d 93 94 3d
       0.076406695 0.24773106 0.23155946 0.07254622
0000f0 12 88 58 be d6 69 eb bd d0 bb 91 be 2a 7b 8a 3e
       -0.21145657 -0.11494796 -0.28463602 0.27047092
